…
   "outputs": [],
   "source": [
    "sample_weight = np.ones(shape=(len(y_train_),))\n",
    "sample_weight[y_train_ == 1] = 10.0"
   ]
  },
  {
   "cell_type": "code",
   "execution_count": 223,
   "metadata": {},
   "outputs": [
    {
     "name": "stdout",
     "output_type": "stream",
     "text": [
      "Model: \"sequential_24\"\n",
      "_________________________________________________________________\n",
      "Layer (type)                 Output Shape              Param #   \n",
      "=================================================================\n",
      "lstm_31 (LSTM)               (None, 40, 64)            23808     \n",
      "_________________________________________________________________\n",
      "dropout_31 (Dropout)         (None, 40, 64)            0         \n",
      "_________________________________________________________________\n",
      "lstm_32 (LSTM)               (None, 128)               98816     \n",
      "_________________________________________________________________\n",
      "dropout_32 (Dropout)         (None, 128)               0         \n",
      "_________________________________________________________________\n",
      "dense_97 (Dense)             (None, 128)               16512     \n",
      "_________________________________________________________________\n",
      "batch_normalization_76 (Batc (None, 128)               512       \n",
      "_________________________________________________________________\n",
      "dense_98 (Dense)             (None, 128)               16512     \n",
      "_________________________________________________________________\n",
      "batch_normalization_77 (Batc (None, 128)               512       \n",
      "_________________________________________________________________\n",
      "dense_99 (Dense)             (None, 32)                4128      \n",
      "_________________________________________________________________\n",
      "batch_normalization_78 (Batc (None, 32)                128       \n",
      "_________________________________________________________________\n",
      "dense_100 (Dense)            (None, 1)                 33        \n",
      "=================================================================\n",
      "Total params: 160,961\n",
      "Trainable params: 160,385\n",
      "Non-trainable params: 576\n",
      "_________________________________________________________________\n"
     ]
    }
   ],
   "source": [
    "rp_model.summary()"
   ]
  },
  {
   "cell_type": "code",
   "execution_count": 233,
   "metadata": {},
…
    "axes[1].legend(['precision', 'recall', 'fscore'], loc='upper left')\n",
    "axes[1].set_title(\"negative sepsis vs hours to onset\")\n",
    "\n",
    "\n",
    "plt.show()"
   ]
  },
  {
   "cell_type": "code",
   "execution_count": 239,
   "metadata": {},
   "outputs": [
    {
     "name": "stdout",
     "output_type": "stream",
     "text": [
      "Model: \"sequential_27\"\n",
      "_________________________________________________________________\n",
      "Layer (type)                 Output Shape              Param #   \n",
      "=================================================================\n",
      "lstm_37 (LSTM)               (None, 40, 128)           80384     \n",
      "_________________________________________________________________\n",
      "dropout_37 (Dropout)         (None, 40, 128)           0         \n",
      "_________________________________________________________________\n",
      "lstm_38 (LSTM)               (None, 256)               394240    \n",
      "_________________________________________________________________\n",
      "dropout_38 (Dropout)         (None, 256)               0         \n",
      "_________________________________________________________________\n",
      "dense_109 (Dense)            (None, 256)               65792     \n",
      "_________________________________________________________________\n",
      "batch_normalization_85 (Batc (None, 256)               1024      \n",
      "_________________________________________________________________\n",
      "dense_110 (Dense)            (None, 128)               32896     \n",
      "_________________________________________________________________\n",
      "batch_normalization_86 (Batc (None, 128)               512       \n",
      "_________________________________________________________________\n",
      "dense_111 (Dense)            (None, 64)                8256      \n",
      "_________________________________________________________________\n",
      "batch_normalization_87 (Batc (None, 64)                256       \n",
      "_________________________________________________________________\n",
      "dense_112 (Dense)            (None, 32)                2080      \n",
      "_________________________________________________________________\n",
      "batch_normalization_88 (Batc (None, 32)                128       \n",
      "_________________________________________________________________\n",
      "dense_113 (Dense)            (None, 1)                 33        \n",
      "=================================================================\n",
      "Total params: 585,601\n",
      "Trainable params: 584,641\n",
      "Non-trainable params: 960\n",
      "_________________________________________________________________\n"
     ]
    }
   ],
   "source": [
    "rp_model.summary()"
   ]
  },
  {
   "cell_type": "code",
   "execution_count": 258,
   "metadata": {},
…
